trainedCNN20Epochs.pth (torch, 109079 bytes, 22 tensors)

conv1.0.weight f4 [8, 1, 3, 3]
000000 23 45 9b be 26 8b 53 be ce 5a 53 be 09 f5 96 3e
       -0.30326185 -0.2065855 -0.20640108 0.29483822
000010 08 93 9f bd 96 ed ca bd 80 a0 a8 be 19 b1 52 be
       -0.07791716 -0.09908597 -0.32934952 -0.2057537
000020 e6 43 de bd e6 c6 e2 bd 82 44 eb bc f6 b4 09 be
       -0.10852794 -0.11073093 -0.02871919 -0.13447937
000030 74 dc 28 be dd 6b ab be f9 17 63 bd 81 09 98 be
       -0.16490346 -0.3348073 -0.055442784 -0.2969475
000040 4e b7 05 be 90 15 94 3e dc d0 a0 3c 7d e2 82 3d
       -0.13058206 0.289227 0.019630842 0.063908555
000050 55 ca 7c be 15 dc 8e 3e 8d ca 6f 3e c2 09 d5 3d
       -0.24686559 0.27902284 0.2341711 0.10402252
000060 d3 2c 13 3e bb 00 db bc 70 ab 82 3d 1b 0e 50 3e
       0.14372568 -0.026733747 0.06380355 0.20317881
000070 d9 cf 26 3e d3 38 af 3e 72 3e 9b bc 12 3e 4d 3e
       0.16290225 0.3422304 -0.018950675 0.20043209
000080 a2 f9 14 3e 10 b3 1e 3e ce 73 39 bd b5 ec bc 3d
       0.14548352 0.15497994 -0.045276456 0.09224836
000090 46 91 58 3d 17 48 ff 3d 3d 7a 3d 3e ca f4 ab be
       0.05287292 0.12464922 0.18503661 -0.33585197
0000a0 b5 96 6d 3e f6 f3 15 be 3d 21 b8 be 35 72 5a bc
       0.23202021 -0.14643845 -0.3596286 -0.013332893
0000b0 ba 22 4d 3e 28 09 49 3e 55 ab da 3c 75 07 65 be
       0.20032778 0.19632399 0.026693026 -0.22366126
0000c0 48 e9 84 bd 3f b7 c2 be 73 e1 92 3e 0f 60 e8 3d
       -0.06489807 -0.3803043 0.2868763 0.11346447
0000d0 97 14 e7 3d ce 4e c0 3c 9f 14 48 3e 33 0f 56 3e
       0.11283224 0.023475077 0.19539116 0.20904236
0000e0 39 b7 4a 3e f9 6f a5 bd fe bd 6e be 09 aa 6a bd
       0.19796456 -0.08077998 -0.23314664 -0.057291064
0000f0 4f 10 98 be f3 a0 88 be 22 a1 78 3e d9 c7 90 bd
       -0.29699942 -0.26685295 0.24280217 -0.07069368
000100 52 ee 36 bd 93 48 90 be 21 be b8 bd 37 84 09 be
       -0.044660874 -0.2818037 -0.09020639 -0.13429342
000110 ec c3 b3 3e a4 88 12 bd 45 ec 40 3e 2c a3 24 3e
       0.35110414 -0.035774842 0.1884013 0.1607787

conv1.1.weight f4 [8]
000000 e2 cb bc 3f 1b 99 86 3f 44 06 53 3f d4 1c 4c 3f
       1.474972 1.0515474 0.82431436 0.7973149
000010 e8 96 68 3f 45 88 5d 3f 2b ac 87 3f f2 cc 62 3f
       0.90855265 0.86536056 1.0599416 0.8859397

conv1.1.bias f4 [8]
000000 ab e7 e9 bc 01 9d 44 3e 9c 9d b2 3e e8 bb 26 bc
       -0.02855285 0.19200517 0.3488587 -0.010176636
000010 a8 04 22 3e b5 4c 7b 3e 9f 03 1c 3d 6f 4d a3 3d
       0.15822089 0.2454098 0.03808939 0.07973754

conv1.1.running_mean f4 [8]
000000 c6 c7 0c c2 b7 4d ce c1 89 fe 88 41 76 30 0a 42
       -35.19509 -25.787947 17.124285 34.547325
000010 e0 af 98 bf 84 46 47 40 7b 5d fb bf a1 01 fd 3e
       -1.1928673 3.113679 -1.9637903 0.49415305

conv1.1.running_var f4 [8]
000000 20 aa 9c 47 2c 2e 79 47 65 0e 18 47 e8 d6 ac 47
       80212.25 63790.17 38926.395 88493.81
000010 f6 48 af 46 08 41 24 46 ea a0 1e 47 4d 7c b3 46
       22436.48 10512.258 40608.914 22974.15

conv2.0.weight f4 [16, 8, 3, 3]
000000 1f cb c1 3c 02 eb 33 3e dc 76 87 3e b5 6e b7 3e
       0.023656426 0.17570117 0.2645787 0.3582665
000010 98 bd fa 3e 7e fc 0d 3f 1d c7 6b 3d 96 93 a0 3c
       0.48972774 0.554634 0.057562936 0.019601624
000020 bb e7 cb bc 8e 68 c0 3d 9c e4 e5 3d fc ca 27 3d
       -0.024890771 0.09394942 0.112252444 0.040965065
000030 39 dc 18 3e 96 7e e3 3d d3 ec 4b 3e 1f f7 24 3e
       0.14927758 0.11108129 0.1991456 0.16109894
000040 93 e7 93 3d 09 7b 0b 3d 11 97 42 3d 6e 59 f7 bd
       0.07221904 0.034052882 0.04750735 -0.12077604
000050 f4 bb 08 be f3 12 aa 3d cb 20 90 bd a3 2a 24 bd
       -0.13352948 0.083043955 -0.07037505 -0.040079724
000060 61 00 d2 bd a5 2d 10 be c8 a9 10 bd 03 b4 4a 3d
       -0.102539785 -0.14079912 -0.035318166 0.04948808
000070 61 d3 3f bd 73 ff d2 bb 42 21 a3 b9 3d 8a 06 3e
       -0.046832446 -0.0064391433 -0.00031114562 0.13138671
000080 f7 28 a3 3d 77 0a cc bb e6 87 ba 3c af a5 84 3d
       0.07966798 -0.0062268334 0.02276988 0.06476914
000090 34 e2 dc 3a 1f 7b 3a 3c 92 f9 97 bc da 01 66 bd
       0.0016852082 0.011381893 -0.018551622 -0.05615411
0000a0 5e 25 a9 bd b9 c7 76 bd 25 b6 5a 3b 55 bc 8d bd
       -0.0825908 -0.060249064 0.0033372727 -0.06920687
0000b0 20 36 84 bd d2 e1 2c bc 2b ad be bd 99 63 1c be
       -0.06455636 -0.010551887 -0.09310373 -0.15272368
0000c0 85 87 ac bd 54 e6 e0 bb 45 80 82 bd 8f f2 dc b9
       -0.08424286 -0.0068633948 -0.06372122 -0.0004214239
0000d0 56 19 d6 bd 4f 02 e6 bd 7c 74 43 3d f9 13 97 bc
       -0.10454051 -0.11230909 0.04771851 -0.01844214
0000e0 45 3c 90 3d 1f 63 8a 3d cf 10 3e 3d 6e a7 ba bd
       0.070427455 0.06757187 0.04640275 -0.09113966
0000f0 dc 00 fe bc c0 f1 c7 3d 45 df 7d bd 97 8e ac bd
       -0.03100627 0.09762907 -0.061980505 -0.08425634
000100 5e 5a 6f bd 6e 60 85 bc 40 dd 09 3d 4e c1 6e bd
       -0.05843579 -0.016281333 0.033658266 -0.05828982
000110 ce 7f 8a bc 81 50 04 be 33 56 96 bc 0d 7a fe 3c
       -0.016906645 -0.12921335 -0.01835165 0.031064058
000120 71 eb c7 be 0f a1 44 be 23 ee 33 be 89 de 30 3d
       -0.39046815 -0.19202064 -0.1757131 0.043180976
000130 2b 35 47 bd 36 89 15 bd 1f 6a 6c bd dd 3a 14 bd
       -0.04863469 -0.036507808 -0.057718392 -0.03618895
000140 5d 3b 86 be b0 08 f5 bd bd 7d 82 3d 75 f3 6c bd
       -0.26217166 -0.11964548 0.06371639 -0.057849366
000150 a8 91 b2 bd 13 78 fd 3d 7e 1e e3 bd a7 04 ba 3d
       -0.08719188 0.12376418 -0.110898 0.090829186
000160 33 a4 26 3e fc d2 78 bd 7f 76 36 bd 5d 52 97 3d
       0.16273575 -0.060748085 -0.0445466 0.073887564
000170 92 d0 67 3d 5a 9a 99 3d 6e e4 a7 bd 6f f0 14 bd
       0.056595393 0.07500143 -0.081978664 -0.036362108
000180 0f 9e f5 3d ca be 99 3d 8a db 3a 3d 2d e6 cc 3d
       0.11993038 0.07507093 0.045619525 0.1000484
000190 2d 03 f2 bd 49 1b b8 3c 60 81 31 be 8d a1 e4 3c
       -0.11817012 0.022473948 -0.17334509 0.027909065
0001a0 ce 15 ac bd 1e 27 8e bd c5 26 66 3d 2d 2b b4 bd
       -0.084025964 -0.06941055 0.056189317 -0.087972976
0001b0 43 38 37 3e 2e 3c 34 3c e6 e1 3b bd 27 8b a6 3c
       0.17892556 0.011000676 -0.04586973 0.020330025
0001c0 04 d7 df bc 25 14 35 be 59 9d 41 be 12 0b 07 3d
       -0.027324207 -0.17683466 -0.1890768 0.03296954
0001d0 1a b7 ef 3b 01 13 89 3d 2a da af 3c fa 0e 0f be
       0.0073155286 0.06693078 0.021466333 -0.13970557
0001e0 5c 04 8f 3d d8 e0 f5 3c 7b 3d 9c bc 20 dd c0 bd
       0.06983253 0.03001444 -0.019072285 -0.09417176
0001f0 08 66 10 be 13 7b 21 be 8b 6a d4 bd 08 1b 70 3c
       -0.14101422 -0.15769605 -0.10371884 0.014654882
000200 05 9d 45 3d ec b8 69 bd 23 f5 56 3d 39 1f 16 be
       0.04824545 -0.05706112 0.052479874 -0.14660348
000210 b7 16 14 be 5e 7e ff bd 53 8e c3 bd f2 02 d9 3d
       -0.1446179 -0.124752745 -0.095486306 0.10596265
000220 85 23 1d 3d 38 f6 c6 bd 30 7f 0d 3c 06 b9 5d 3c
       0.038363952 -0.09714931 0.008636281 0.013532883
000230 2f ad d3 3c 63 d9 2e be ef f4 9d 3d 1d 70 86 bd
       0.025839416 -0.17075114 0.07712733 -0.06564353
000240 e3 f1 9b be 4d a9 1a bc f8 52 c9 3d fd 0d 1b bd
       -0.30457982 -0.0094397785 0.09830278 -0.037855137
000250 6c a1 6f bd b7 cd 95 3c 99 b0 a7 3d 97 26 76 3d
       -0.058503553 0.018286569 0.0818798 0.060095396
000260 7a 2e 19 3e a8 81 5b bc 5b a6 4d bd b7 0f 39 bb
       0.14959136 -0.013397612 -0.050207477 -0.0028238127
000270 68 b0 14 bd 84 43 8e bd 93 5d 9e 3d df 6e 01 3d
       -0.036301047 -0.06946471 0.077326916 0.031599876
000280 99 a8 e7 3d 4f c8 8c bd 7c ac b4 3d eb 3e 6f 3c
       0.11311454 -0.06874143 0.08821961 0.014602403
000290 13 0a 00 be 3e bb 9f bd 37 e9 16 3d 65 af 46 bd
       -0.12503843 -0.077993855 0.036843505 -0.048507113
0002a0 3d 99 b5 bd 20 cb 04 3e 69 35 09 be c3 83 46 3d
       -0.088671185 0.12968111 -0.1339928 0.0484655
0002b0 ce 27 4d be c5 15 e2 ba 17 c0 65 3a cd f2 11 be
       -0.20034716 -0.001724892 0.00087642804 -0.14252777
0002c0 6d fd be bd 5e 63 f2 3c 70 23 b2 bd c1 d8 92 3d
       -0.09325681 0.029588398 -0.086981654 0.07170249
0002d0 b4 5d 62 39 e2 ff 0a be 06 37 ec bd e1 76 d4 bc
       0.00021587947 -0.13574174 -0.115339324 -0.025935592
0002e0 e0 62 c7 bd 90 a5 81 3d f0 0b 82 bd f5 12 d1 bc
       -0.09735656 0.06330407 -0.06349933 -0.025521735
0002f0 d1 1c 58 3d 81 71 ff 3d 6b d8 80 3d a4 67 1f be
       0.052761856 0.12472821 0.062912785 -0.1556688
000300 37 a5 b1 3d 78 d8 4d bd 40 1b 84 bc 8f 58 77 3d
       0.0867409 -0.05025527 -0.016126275 0.06038719
000310 d6 33 0c be 02 22 af bd ed b5 36 3e 99 ca 09 3d
       -0.13691649 -0.08551408 0.17842837 0.033640478
000320 35 a1 f9 bd 62 2a 66 bc 88 c5 ed bc e6 af cc bd
       -0.12188951 -0.014048191 -0.029024854 -0.099944875
000330 4b 2c e1 3c 63 01 dd bd 39 be f5 bb 9c b1 ca bc
       0.02748694 -0.1079128 -0.007499483 -0.024742894
000340 49 aa 35 be 63 06 0a 3d 5d 95 81 3d 5c 97 c9 3c
       -0.1774074 0.033697497 0.06327317 0.024608307
000350 00 23 a0 bd a7 4d b1 3d 7e bf 33 3d 04 56 41 be
       -0.07819176 0.08657389 0.043883793 -0.18880469
000360 9a a8 27 3e 96 30 d4 3d 43 ae 1f 3e fc 7a 90 3e
       0.1637291 0.103608295 0.1559382 0.2821883
000370 50 59 08 3f 94 3c 04 3f c4 9d fa bd f0 9b ea bd
       0.5326128 0.51654935 -0.12237123 -0.11455524
000380 3b cb 46 3d c3 6f 56 3d a0 ae 1a 3d 78 18 29 3e
       0.04853366 0.052352678 0.03776419 0.1651324
000390 da cc 83 3d 1b 60 68 3e 35 68 57 3e aa 20 29 be
       0.06435557 0.22692911 0.21035846 -0.16516367
0003a0 ce b9 b3 bc bc 06 f6 3c b8 60 9a bd 2f e9 17 3d
       -0.021939185 0.030032508 -0.07537979 0.037087616
0003b0 1f 3f 16 be da 86 8d 3d 01 95 86 bd 56 00 7f bd
       -0.14672516 0.069104865 -0.06571389 -0.06225618
0003c0 cc 8e 98 3c 31 11 c2 3d 0d 37 46 be 2f 48 cd 3c
       0.018622778 0.09475935 -0.19356938 0.025058834
0003d0 02 fd 19 bd 44 4b cc 3d fb 47 10 3d 53 9b df bc
       -0.037594803 0.09975293 0.035224896 -0.027295744
0003e0 8f 3a 0f 3d ad d9 8b 3d 45 b3 06 bc 44 0e 61 bd
       0.034967955 0.06828628 -0.008221452 -0.054945245
0003f0 b6 7c 9c 3d c6 09 01 ba 73 29 86 ba 52 17 6e bd
       0.07640974 -0.0004922416 -0.0010235742 -0.05812771

conv2.1.weight f4 [16]
000000 7f 35 9a 3f dd f0 6a 3f 50 29 8c 3f a5 61 98 3f
       1.2047576 0.9177378 1.0950108 1.1904799
000010 82 e1 58 3f d9 94 77 3f 79 3c 8b 3f 6f 2f 57 3f
       0.847191 0.967115 1.087783 0.8405675
000020 c2 5e 82 3f 5c 74 83 3f 11 d2 37 3f 48 be 70 3f
       1.0185168 1.0269885 0.7180491 0.94040346
000030 a5 74 9f 3f 1e ea 5d 3f 26 17 6f 3f 63 91 8a 3f
       1.2457472 0.8668536 0.93394697 1.0825619

conv2.1.bias f4 [16]
000000 93 4b 3d 3d f6 51 90 bd 07 2d 27 bd d7 a1 b5 3b
       0.04621465 -0.07046883 -0.040814426 0.0055429745
000010 ee 70 24 3e 72 d6 84 bd ae e7 8b 3a 4b cf 85 3d
       0.16058704 -0.06486215 0.0010673904 0.065336786
000020 6c 2b 8d bd 96 df a7 b8 a2 6e bc 3d 8a e0 e8 bc
       -0.06893048 -8.004827e-05 0.09200789 -0.028427381
000030 e2 88 26 3e 04 36 e5 3d d0 e2 9d bc 71 af 2f bc
       0.16263154 0.11191943 -0.019273192 -0.010722981

conv2.1.running_mean f4 [16]
000000 4e 6a 9e 3a 06 09 a2 be d8 e1 9d be d4 a0 2c be
       0.0012086125 -0.3164751 -0.30836368 -0.16858226
000010 d5 22 74 3c 8c 02 bd bb 22 b5 0c bf 1f 9f 4c be
       0.014900883 -0.005768126 -0.54963887 -0.19982575
000020 a5 1c 4b be d0 e5 8a bc 41 26 e9 3e c3 b4 ca bb
       -0.19835146 -0.016955286 0.45536998 -0.0061860993
000030 3a b2 3b bf 80 54 e6 bb 9c 4e f8 3e 82 b1 3a be
       -0.7331883 -0.007029116 0.48497474 -0.18231776

conv2.1.running_var f4 [16]
000000 50 e4 88 3f 40 3f 59 3f 0a 88 94 3f 68 97 0b 40
       1.0694675 0.84862137 1.1604016 2.181116
000010 b1 44 87 3e 71 d5 83 3f ff 7c 5c 3f 00 60 29 3f
       0.26419595 1.0299512 0.8612823 0.6616211
000020 38 b6 bd 3f 25 9a 49 3f 20 78 7b 3f ae 1a 8d 3f
       1.4821234 0.7875083 0.9823017 1.1023767
000030 e2 6a 10 40 cf ee b7 3f 15 b5 3f 3f 33 05 97 3f
       2.2565236 1.4369754 0.74885684 1.1798462

conv3.0.weight f4 [32, 16, 3, 3]
000000 33 c4 9c 3d 92 0c 31 3d cc 8c 4a 3e 6d 78 14 3d
       0.076546095 0.04322488 0.19780272 0.03624766
000010 2d db 17 3e 06 54 35 3e 27 22 89 be 27 ae ae bd
       0.14829703 0.17707834 -0.2678387 -0.08529311
000020 ec 98 ca bd b8 81 85 bd 70 7b 86 bd 33 04 82 3c
       -0.09892449 -0.065188825 -0.065665126 0.015871143
000030 09 15 e5 3c 3b c9 25 bc 82 bc d8 bc 2f aa 2e 3d
       0.027964132 -0.010118778 -0.026457075 0.04264277
000040 e0 35 00 3d 39 b1 74 3d fa be b5 3b ee 78 48 3d
       0.03130138 0.059739325 0.005546448 0.048943453
000050 5f 14 cc 3d 7f ed 53 bd a3 d3 23 3e 07 71 a3 3b
       0.09964823 -0.051740166 0.15998702 0.004987839
000060 58 f2 41 be b6 ad 06 3d 1a c1 e2 bc ed 7a 3d 3e
       -0.18940103 0.032880507 -0.027679969 0.18503924
000070 6c 1a 7c 3e ab c8 76 3e 77 cb 2c 3d 61 9b 7a ba
       0.24619454 0.24099986 0.042186227 -0.00095598964
000080 de db 84 3d 4a 8a 7f be 48 5c 1c be 2f c5 bc bd
       0.06487249 -0.24955097 -0.15269578 -0.09217297
000090 03 ff b0 bd 9a 21 61 bd 74 48 09 bd b9 98 2f 3d
       -0.086423896 -0.054963686 -0.033516362 0.042870257
0000a0 11 bb 21 3d 21 e6 6d 3d 8d f1 fa 3d ba dd ab 3c
       0.03948504 0.058080796 0.122531034 0.02097975
0000b0 8c 85 0c 3d c3 9f 2c 3d 1f 5b 3b bc cd c0 b3 bc
       0.034307048 0.04214455 -0.011435299 -0.02194252
0000c0 d1 21 8f 3d 8b b3 9f 3d e0 ba 0d 3d f1 f7 68 3d
       0.06988872 0.07797917 0.034602046 0.05687708
0000d0 af 90 b0 bd a0 e9 c1 bd 33 1d 0b 3e 6c 25 39 bc
       -0.08621346 -0.094683886 0.13585357 -0.011300426
0000e0 fa f4 01 be 21 93 cb bd 60 9c 46 3d ae 1e 0b bd
       -0.12691107 -0.09940172 0.048488975 -0.033964805
0000f0 35 7b 02 3e 18 f1 fa 3d 5d aa ea 3d 35 1d a6 3c
       0.12742312 0.12253016 0.114582755 0.020277599
000100 ac 1c 4e 3d d7 7e 49 be 2a 13 1d be 46 3b 96 3d
       0.050320312 -0.19677292 -0.15339342 0.07335524
000110 3c 56 38 3d 99 6d 6b bd 48 62 8a bd c2 5f 02 3c
       0.045004115 -0.057477567 -0.06757027 0.007957401
000120 af 2f ae bd 2a 56 f9 bb 57 bf ee 3d 46 0a 41 3d
       -0.08505189 -0.0076091485 0.11657589 0.04712894
000130 a8 cd 36 3d d7 6f 03 bd 2d aa f0 bd 25 31 19 3d
       0.044629723 -0.03208908 -0.117512085 0.037400384
000140 48 bd d1 3c 2a 90 05 3d 6d b0 e4 3c 67 87 4d bc
       0.025602952 0.03260819 0.027916158 -0.012544489
000150 5e 18 2d bc 30 5c c6 3d af 44 1a bc 2c 18 17 3d
       -0.010564892 0.09685552 -0.0094157895 0.036888286
000160 c4 ac 27 3d 49 8f 61 3c b0 ec d1 3d 88 12 45 3d
       0.040936247 0.013767072 0.10250223 0.048113376
000170 33 58 2f 3c a4 1c 83 bd 3d 15 1a 3d a2 1a 1a be
       0.010702181 -0.06401947 0.03761791 -0.15049222
000180 9e a0 7b bd 67 68 6d bd 40 f0 a4 bd 31 9d 4a 3c
       -0.061432473 -0.057960894 -0.080536366 0.012366579
000190 c6 ec 83 bd 5a e2 25 bc c3 3e aa bd 16 5e 6a bd
       -0.06441645 -0.010124767 -0.08312752 -0.057218634
0001a0 56 88 ec 3c a4 42 57 3c 62 9d 8b bc 0e e0 8d 3d
       0.028873604 0.013138447 -0.01704282 0.06927501
0001b0 b2 97 f5 3d 6c 57 0d bc c3 d8 1c 3e be 4d 3f 3e
       0.11991824 -0.0086268 0.15317063 0.18682
0001c0 d3 dc 0e 3e 0c 1b 8c 3e b2 4d 01 be 9c 8a db bd
       0.13951425 0.27364385 -0.12627295 -0.10719797
0001d0 7e bf 41 bd 5e 64 bc bd 49 33 e0 bd 7b 5d cd bd
       -0.04730176 -0.09198831 -0.10947282 -0.100275956
0001e0 63 c2 16 be c8 27 f8 3c fd 4c 0e be c1 0d 51 3d
       -0.1472259 0.030292407 -0.13896556 0.051038507
0001f0 b0 11 01 bd 52 c2 ae 3c f8 36 74 3c 97 f1 11 3e
       -0.03151101 0.021332894 0.014905684 0.14252315
000200 5c 12 0c bd 69 e4 dd bd f1 8e 3f 3c 5d 1b a3 bd
       -0.034197196 -0.108345814 0.011691795 -0.079642035
000210 ce 8b 93 bd 70 84 4d bd 22 d0 af bd 60 5e ba bd
       -0.072044 -0.05017513 -0.0858462 -0.09100032
000220 74 e7 0c 3a 5f fe bf bd 7c 0f b5 bc 03 35 ed bc
       0.00053750654 -0.09374689 -0.02210211 -0.028955942
000230 48 f2 32 be 54 fe 19 3b ed 59 03 bc 9c 99 f6 3c
       -0.17475235 0.0023497539 -0.008017045 0.030102544
000240 5d bb 06 3e c0 1e 3c 3d 8f 36 0a 3e 8d f7 4d bd
       0.13157411 0.045927763 0.13497375 -0.05028491
000250 b5 20 53 bd 49 e5 95 bd b9 04 03 bd 67 ac 5e be
       -0.051544864 -0.07319123 -0.031986926 -0.21745454
000260 ab 73 a0 be 4d fe 1f 3d 51 5d eb bd a8 80 c6 bc
       -0.31338248 0.03906088 -0.11492408 -0.02423127
000270 87 46 e8 bd 10 25 fe bc c8 e9 de 3d 80 65 0d 3e
       -0.11341577 -0.031023532 0.10884434 0.1380825
000280 e4 42 f7 3c 14 e4 57 3d a3 f8 16 3d f6 ab c0 38
       0.030183263 0.052707747 0.036858212 9.187304e-05
000290 70 de 9f 3d 2c 07 46 bd 10 32 49 bc f4 02 ac bb
       0.078060985 -0.048346683 -0.012280002 -0.0052493755
0002a0 02 a1 06 3e aa 4f 63 3d 6d 84 69 bb 92 7d 1f 3e
       0.13147357 0.055495895 -0.003563191 0.15575245
0002b0 45 d6 d5 3c 17 63 18 3d 71 13 b2 3c 67 11 be 3d
       0.026103148 0.037203874 0.021737786 0.09280663
0002c0 c3 24 a8 3c cf 4a da bd 78 20 e8 bd c8 88 1b be
       0.020525342 -0.106588 -0.11334318 -0.15188897
0002d0 a0 28 69 be ba 68 20 be b1 57 42 be a2 e7 d2 bd
       -0.22769403 -0.1566495 -0.18978764 -0.10298087
0002e0 7d 45 ca 3d 96 f6 40 3d ee 16 4f 3c 45 2b 68 3d
       0.09876535 0.047110163 0.012639744 0.05668189
0002f0 07 59 39 3d 62 43 b8 bd 9a ef 75 bd b5 f2 44 bd
       0.04525092 -0.08997227 -0.060042955 -0.048083026
000300 68 22 0b 3d d8 e0 c3 3b 52 83 13 bd 20 1d bd bd
       0.03396836 0.005977731 -0.03601391 -0.09234071
000310 4c 93 42 3d 91 66 c9 3c 0c 25 4a 3d f5 63 95 bd
       0.047503754 0.02458504 0.049351737 -0.07294456
000320 b8 0c 04 be 3d 62 6e 3c 06 e3 b1 3c a1 ea b4 3d
       -0.12895477 0.014549789 0.021714699 0.088338144
000330 fb b0 1b 3d b6 2a fa bb 9c 33 87 bd a8 71 c1 bd
       0.03801058 -0.007634486 -0.066016406 -0.09445506
000340 62 87 3f be 67 fe 02 be 0c 27 0c be 04 99 23 bd
       -0.18703988 -0.1279236 -0.1368677 -0.03994085
000350 ff 0a 14 bd ad 8c 20 be a1 c5 79 bc 47 23 2a bc
       -0.0361433 -0.15678664 -0.015244872 -0.010384387
000360 8e a0 a5 3d 26 2c 55 3c 4a e7 b5 3d 3e a7 b5 bb
       0.08087264 0.013011014 0.088820055 -0.0055436185
000370 1c 96 49 3c 12 b0 63 3b bd 8d 83 3d ca 76 e7 bc
       0.012303855 0.0034742397 0.06423519 -0.028254885
000380 65 be 0c 3d f6 7a 30 bc 8a 49 cd 3d a4 a4 f2 bd
       0.034361262 -0.010771504 0.10023792 -0.11847809
000390 9b 0a e2 3d 17 45 23 bd e3 77 8b bd ee 9f 5f bd
       0.11037179 -0.03986081 -0.06809976 -0.05459588
0003a0 0f 16 97 bd 1c 6d 80 3d bd 18 ab bd 71 25 27 be
       -0.07377254 0.06270811 -0.08354328 -0.16322877
0003b0 71 a4 1f be 4a 30 b4 ba b7 2f da bd 6d d0 dd b9
       -0.15590073 -0.0013747301 -0.10653632 -0.00042307694
0003c0 11 77 16 bd e3 06 04 bc 3d 4c 83 3c 35 6d 01 bc
       -0.036734644 -0.008058283 0.016027564 -0.007899572
0003d0 87 20 31 3e c7 54 05 bd b6 59 09 bd 2e 5c 8b bd
       0.17297564 -0.032551553 -0.03353282 -0.06804691
0003e0 03 74 98 3d 04 38 31 bc 67 e6 62 3d 73 32 a2 3d
       0.074440025 -0.010816578 0.05539551 0.07919779
0003f0 04 cb e1 3d 7c eb 51 3d 7c 0c 02 3e 8c d8 2b 3d
       0.1102505 0.051249966 0.12700075 0.041954562

conv3.1.weight f4 [32]
000000 2c 4e 7b 3f c4 f9 73 3f 4a 28 80 3f 26 6a 86 3f
       0.98166156 0.9530299 1.0012295 1.0501144
000010 e0 df 5f 3f 5b d1 82 3f 4d f6 79 3f 6f cc 7e 3f
       0.8745098 1.022014 0.9764145 0.9953069
000020 91 f5 81 3f f0 f6 7a 3f 5c 42 84 3f d0 de 6a 3f
       1.0153066 0.98033047 1.0332751 0.91746235
000030 de 67 71 3f b4 e6 75 3f 7b be 60 3f 8b f3 83 3f
       0.94299114 0.9605515 0.8779065 1.0308698
000040 54 3a 83 3f 7f ea 6d 3f 77 3c 76 3f 69 1b 7c 3f
       1.0252175 0.9293594 0.9618601 0.98479325
000050 4b 1b 7d 3f dd a5 87 3f e7 a7 62 3f 0b fd 7c 3f
       0.9886977 1.0597492 0.8853745 0.9882361
000060 c8 3f 79 3f 80 68 7e 3f b8 f8 8c 3f 99 ac 5a 3f
       0.9736295 0.99378204 1.1013403 0.85419613
000070 d9 e2 6c 3f 10 e6 7d 3f 98 39 7a 3f 03 ff 87 3f
       0.9253364 0.9917917 0.9774413 1.0624698

conv3.1.bias f4 [32]
000000 8e 88 3b 3d 6a bc 0c be a2 94 1f be 9c 2b ba bd
       0.045784526 -0.1374375 -0.15584043 -0.09090349
000010 f2 2e cb bd 57 51 4f bd 65 0e 71 3d bb a9 4c 3c
       -0.099210635 -0.05061468 0.05885162 0.012491639
000020 c7 65 83 3c 75 9d 1f bd 3d 52 83 bd 10 c4 23 be
       0.016039742 -0.038968522 -0.0641217 -0.1599276
000030 bc ae 01 be da cd 09 3d a0 69 db bd 49 d0 6b bd
       -0.12664312 0.03364358 -0.10713506 -0.057571683
000040 7e ab 8d bd ab 77 a7 bd ac 3c 4a bd 46 2b 10 be
       -0.06917475 -0.08177122 -0.049374267 -0.14079008
000050 df f0 f8 bd 58 e4 f7 bd 92 0c 6b bd 99 54 73 bd
       -0.121553175 -0.121041 -0.057385035 -0.05940685
000060 aa e1 d0 bd a3 ee d5 bd 58 63 f9 3d dd cc 9c 3d
       -0.10199292 -0.10445907 0.121771514 0.07656262
000070 01 20 a4 bd 3d ea d3 bd db df c2 bd 1f 1c cf bd
       -0.08013917 -0.10347412 -0.09515353 -0.101127855

conv3.1.running_mean f4 [32]
000000 fe 3d 55 3d 62 75 ed be 0f 30 bc be 5d 57 7f be
       0.052061073 -0.46378618 -0.36755416 -0.2493567
000010 4e b4 b2 3e b4 4a a0 be 99 17 2d bd f8 e4 00 bf
       0.34903187 -0.31306994 -0.042258833 -0.5034938
000020 0d 5a 38 be dd 7b 91 be 76 64 3e be a0 68 ce be
       -0.18003102 -0.28414813 -0.1859301 -0.40314198
000030 9e 51 96 be f0 07 17 bf 75 1c e4 bd 34 68 57 be
       -0.29359144 -0.58996487 -0.1113824 -0.21035844
000040 4a 5b 4f be 74 e8 96 be 9b 50 30 bd 03 2d 69 be
       -0.20249668 -0.29474223 -0.04304562 -0.22771077
000050 ec 1e 29 bf 53 e7 95 be 71 55 1f be 85 6c 03 bf
       -0.6606281 -0.2927805 -0.15559937 -0.5133746
000060 a1 ac df be 0b c2 98 be ef fa f4 3d db 6e 77 3e
       -0.43686393 -0.29835543 0.11961924 0.24163382
000070 22 34 17 be 3d a1 a4 be 01 af cb be 44 2f 81 be
       -0.14765981 -0.32154265 -0.39781955 -0.25231373

conv3.1.running_var f4 [32]
000000 77 44 18 3f 1f 72 7c 3f b1 de 19 3f 2e af 2e 3f
       0.5947947 0.98611635 0.60105425 0.68236053
000010 8f d1 8d 3f 98 c3 bd 3f 69 fe 4b 3f b5 50 88 3f
       1.1079577 1.4825315 0.79685074 1.064963
000020 78 2f 3a 3f 61 03 fb 3f 37 ee 80 3f b2 80 8e 3f
       0.7272868 1.9610406 1.0072697 1.1133025
000030 6f 91 9e 3f 3a 53 6a 3f b2 25 4d 3f c7 c2 23 3f
       1.2388133 0.91533244 0.80135643 0.6396908
000040 ad 23 e1 3f d2 d5 30 3f fc e1 80 3f da 76 be 3f
       1.7589012 0.69076264 1.0068965 1.4880021
000050 02 38 66 40 3d bb 02 3f b5 40 2f 3f 56 d2 63 3f
       3.5971684 0.5106695 0.6845811 0.8899282
000060 88 08 75 3f 69 0f 63 3f f5 fa 22 3f 81 14 01 3f
       0.9571614 0.8869539 0.6366418 0.5042191
000070 c7 e4 71 3f 97 e1 c3 3f e4 a7 87 3f c6 4e 06 3f
       0.9448971 1.530322 1.0598111 0.5246395

conv4.0.weight f4 [64, 32, 3, 3]
000000 c0 e7 7c bc 2f 0b c5 bb c8 25 b3 bc 88 81 27 bd
       -0.015436113 -0.006013296 -0.021868601 -0.040895015
000010 76 83 50 bd b9 1d ec bc 19 05 91 3a 80 f4 91 3d
       -0.05090662 -0.028822767 0.0011064141 0.07126713
000020 98 4c 04 bc a3 1b 48 bd a7 0c d2 3c b9 5b 28 3d
       -0.008074902 -0.04885448 0.025640799 0.0411031
000030 fc 34 5b bd 48 3b 5c bd b6 ad 02 bb e3 8f ca bd
       -0.053517327 -0.053767473 -0.0019939966 -0.098907255
000040 4a 93 77 bd 34 86 25 3c 26 11 21 3d 92 96 8b 3d
       -0.0604432 0.010102797 0.039322995 0.068158284
000050 a8 c8 3e 3d f6 83 46 bc 33 20 20 3d a5 30 41 bc
       0.04657808 -0.012116423 0.039093208 -0.011791383
000060 cc b8 00 be ac 8f 0d 3d 27 ed 92 3d bd 3f 81 bc
       -0.12570494 0.034560844 0.071741395 -0.015777463
000070 7f 79 28 3d 92 7d f9 bc ba d4 3d 3d 91 b2 59 3b
       0.041131493 -0.030455384 0.04634545 0.0033218006
000080 2e c8 56 3d 70 8f 5c bc 6d 41 ea 3c c4 2b b4 bc
       0.052437 -0.013461933 0.02859565 -0.021993525
000090 f1 76 17 bd 77 34 19 bd c7 c2 98 bc 7a 36 f8 3c
       -0.036978666 -0.03740355 -0.018647565 0.030299414
0000a0 ea b2 38 3d 1a 57 03 bd 12 fd 23 bd c5 16 2a bb
       0.0450925 -0.03206549 -0.04003627 -0.0025953513
0000b0 d5 3b 70 bd c5 bd a4 3d 2f 16 e8 bd e9 5e f0 3d
       -0.05865081 0.08044008 -0.11332356 0.11736853
0000c0 83 b8 23 3d 4f a3 2e bb a0 c0 06 bd 44 ba 75 3d
       0.039970886 -0.0026647632 -0.032898545 0.05999209
0000d0 43 14 1d 3c 0f 63 8f 3d 7c 92 c8 3c 74 af 82 bd
       0.00958735 0.07001316 0.024483912 -0.06381121
0000e0 e2 af cb bc 9a 70 ad bc 96 68 0c 3d 7e 36 61 3d
       -0.02486414 -0.021171857 0.03427943 0.05498361
0000f0 08 47 ab bd ce 5d 3a 3d 3a b5 bb bc 81 02 70 bd
       -0.083631575 0.045499615 -0.022913564 -0.058596138
000100 02 04 1d bc c1 45 08 bd f5 22 d5 3c 3a 59 30 3d
       -0.009583475 -0.033269648 0.026017645 0.043053843
000110 a5 2e 9d ba 86 88 65 3e 37 ec 5e 3d 74 31 33 bd
       -0.001199205 0.22415361 0.05442449 -0.043748334
000120 5c c6 7c bd ed f3 0c bd d1 1b 0d 3b 0b 51 6e ba
       -0.061712608 -0.034412313 0.0021531472 -0.0009091056
000130 56 4d 0f 3d 60 68 c2 bc 0e 48 c1 bb 05 df 26 be
       0.034985863 -0.02373141 -0.005898482 -0.16296013
000140 33 e7 b4 bc a5 8e 98 3d 30 16 4b 3c 6a cd bd 3d
       -0.0220829 0.07449082 0.012395427 0.09267695
000150 9c 2c 21 bd e1 90 a1 3b 2b 62 ce bc 40 6c 40 3d
       -0.039349183 0.004930601 -0.025193295 0.046978235
000160 f0 84 fb bd d5 ba 21 3d 60 f6 da 3b a8 a8 8d 3c
       -0.12281215 0.039484818 0.006682202 0.017292336
000170 6b 1a 2b 3c f1 d4 dc bc 66 78 a8 bb b4 a7 19 bd
       0.01044331 -0.026957007 -0.0051413057 -0.03751345
000180 36 13 52 bd f4 f0 b7 bd 08 c9 0b bd 32 26 97 bc
       -0.051287852 -0.08981505 -0.034127265 -0.01845083
000190 ce d2 e6 bc f7 46 76 3d 85 70 5a 3c 30 ca a4 bc
       -0.028176691 0.06012627 0.013332491 -0.020115942
0001a0 fb 80 b6 bb 38 60 c2 bd 6a 09 3d bc 96 9d 15 bd
       -0.005569575 -0.094910085 -0.011537889 -0.03652724
0001b0 3b c9 6d bc 89 a6 aa bd 88 e6 a9 bc f7 59 21 3d
       -0.014513309 -0.08332545 -0.020739809 0.039392438
0001c0 5a 73 ea 3c 3b d3 5b bd 17 51 11 be 48 e0 be bd
       0.028619457 -0.053668242 -0.1419109 -0.09320122
0001d0 bb c9 0f 3d 32 7a 28 bd ff 79 bf bd a5 38 a5 bd
       0.035104495 -0.04113216 -0.09349441 -0.08067445
0001e0 c5 a7 49 bd f0 d6 76 bc 71 aa 5d bd 3d a7 5a 3e
       -0.049232263 -0.0150658935 -0.054117624 0.21352859
0001f0 9a a3 b3 3d 2b d5 0a bd e3 0e 89 3b 5a e4 ed bc
       0.08771439 -0.0338947 0.004182683 -0.02903955
000200 d6 f6 45 3a 24 a1 5d 3d 4c 2c 3d bd e2 32 e5 bb
       0.0007551735 0.054108754 -0.046184823 -0.006994591
000210 95 ec 33 3d 69 49 1b bd 4a 69 90 3c 7a fc c4 3c
       0.043926794 -0.037911806 0.01762833 0.024046171
000220 f8 ea 52 bd 77 2c 83 3d 6b 5e 0a bd 57 95 e1 bc
       -0.051493615 0.06404965 -0.03378145 -0.027537031
000230 17 b1 36 b9 63 cb 16 3d a9 cf 07 3e 3a 89 77 3d
       -0.00017422844 0.03681506 0.1326281 0.060433604
000240 f7 f8 07 3d d6 cd 14 bc e3 44 cf bb fb 0e 95 bc
       0.033196416 -0.009082278 -0.0063253506 -0.01819562
000250 92 13 ec bc 68 d2 c1 bb 30 35 76 bd 75 ab 36 be
       -0.028817926 -0.005914975 -0.060109317 -0.17838843
000260 b2 2b ce bc 23 92 24 3c fc 34 1c 3e 01 29 8b 3c
       -0.02516732 0.010044607 0.15254587 0.016987326
000270 5f 1c bd 3c a1 49 42 3b e7 ba 61 3c 38 ee 64 bc
       0.023084817 0.0029645937 0.013777471 -0.013972811
000280 ec 20 53 3d ab 5b b3 3c e5 b6 01 bc 84 09 2e 3e
       0.05154507 0.021894297 -0.007917141 0.16995817
000290 64 2a 00 bd c7 e5 5f bc 34 f5 1e bd f5 24 d1 bc
       -0.031290427 -0.013665623 -0.038808063 -0.025530318
0002a0 00 18 04 3d 2a 4d ec 3d f3 e3 d3 3a b4 57 ab 3b
       0.03224945 0.115381554 0.0016165957 0.005228961
0002b0 bd 59 ab 3d c9 9c ac 3a 61 c2 bf 3c 8c f0 56 bd
       0.083667256 0.0013169284 0.023408117 -0.052475497
0002c0 69 78 e0 3c aa 99 34 3c 6c e5 6b 3d fd 79 10 3d
       0.027401166 0.0110229645 0.05759184 0.035272587
0002d0 76 58 36 bd 82 2a 36 3d 40 f0 31 3d f8 1a 60 3d
       -0.044517957 0.044474132 0.04344201 0.05471322
0002e0 76 c9 af bc c8 f3 20 3d 58 5a 17 be 54 a7 10 be
       -0.021458369 0.039294988 -0.14780557 -0.1412633
0002f0 5a 4a 20 3d 58 10 fa bd b0 5a 16 bb fc 16 21 bd
       0.039133407 -0.122101486 -0.0022942238 -0.03932856
000300 6c 43 eb 3c 1c b6 e4 3b 97 d7 3f bd 08 a2 c5 3b
       0.028718673 0.006979717 -0.046836462 0.0060312785
000310 62 41 91 3d 89 6c 84 bd c3 fa 17 3d a3 0d 66 bc
       0.07092549 -0.06466014 0.03710438 -0.014041337
000320 e9 37 84 bb 94 73 d3 3c ef 7b 3f bd f3 e1 07 3c
       -0.0040349853 0.025811948 -0.04674905 0.008293617
000330 9c ae 45 3c f5 98 c2 bb d2 62 49 3d 2c 2f 9a bc
       0.012065556 -0.005938644 0.049166508 -0.018821321
000340 d9 bb 84 bd cd cf 90 bc b8 a4 9d 3c 18 81 0b bd
       -0.064811416 -0.017677212 0.019243583 -0.03405866
000350 69 eb ef bc a1 a6 44 3d 20 c7 c8 bc 74 55 15 bd
       -0.029287057 0.048010472 -0.024509013 -0.036458448
000360 4f 54 7a bd cc dc 5e bc f0 bc 79 3c 32 7c 59 3d
       -0.06111556 -0.013602447 0.0152428 0.053096958
000370 bb c6 68 bd f3 e5 07 3d 3c e8 85 bd ab 8e b1 bd
       -0.05683015 0.03317828 -0.06538436 -0.0866979
000380 2b 82 92 3c c8 93 20 3d 32 a2 00 3d b5 a7 12 bc
       0.017884335 0.039203435 0.03140468 -0.008951117
000390 35 cd 2b bc 0e ff 05 bd cc 65 1c bd 0b d4 ae 3d
       -0.010485937 -0.032713942 -0.03818302 0.08536538
0003a0 da 98 55 3e 15 49 a7 bc ee 87 8d 3c 6e ed 3f bc
       0.2085909 -0.02042059 0.01727673 -0.0117143225
0003b0 3c 05 27 3d d9 c9 eb bc 45 a5 47 bd 7c e3 08 bd
       0.040776476 -0.028782772 -0.048741598 -0.03342007
0003c0 0b 1b 60 3e 3e 3a c3 bc 21 22 f4 3c 5a 26 62 ba
       0.21885316 -0.023831483 0.02980143 -0.00086269306
0003d0 3b 94 18 3c bb 02 fd bc b3 86 4e bc 2e a6 eb 3c
       0.009312685 -0.030885091 -0.012605357 0.028765764
0003e0 fb 79 d4 3c c1 e0 44 bd 98 31 24 3d 21 12 b9 bc
       0.025937071 -0.048065905 0.04008636 -0.022591652
0003f0 ac dd ae 3c cd 6b 44 bc 81 63 99 3c 2d b6 2b 3c
       0.021345936 -0.011988592 0.018724205 0.010480446

conv4.1.weight f4 [64]
000000 a2 01 ba 3f 4b f5 b1 3f b7 ec 97 3f 13 bf 9a 3f
       1.4531748 1.3902982 1.1869115 1.2089561
000010 b2 df a9 3f ca 1b a0 3f c8 5c a2 3f 9e e1 9b 3f
       1.3271391 1.250848 1.2684565 1.2178228
000020 a9 9c bb 3f 75 f9 99 3f e2 7a a4 3f 21 bb a5 3f
       1.4657184 1.2029253 1.2850001 1.2947732
000030 90 52 af 3f 05 4a 9f 3f ca a5 9a 3f 3c d4 a7 3f
       1.3697071 1.2444464 1.2081845 1.3111644
000040 4a ad a8 3f bc 39 97 3f 47 17 a2 3f 1b 75 9d 3f
       1.3177884 1.1814494 1.2663354 1.2301363
000050 1d fa 98 3f c2 fc 95 3f 5e 0e a8 3f de 66 9e 3f
       1.1951329 1.171776 1.3129385 1.2375143
000060 5e c7 9d 3f 79 3d a0 3f 8e bb a2 3f 2b 15 a0 3f
       1.2326467 1.251876 1.2713487 1.250646
000070 d4 b5 a5 3f eb ee b2 3f 49 e9 96 3f a9 ad a7 3f
       1.2946115 1.3979162 1.1789943 1.3099872
000080 c4 99 a0 3f eb af 98 3f da 4d 99 3f ff e7 a4 3f
       1.2546926 1.1928686 1.1976883 1.28833
000090 fb 9f 9f 3f 23 4f a6 3f ee a2 9f 3f f9 8c a8 3f
       1.2470697 1.2992901 1.2471597 1.3168021
0000a0 d1 95 a0 3f 5b e1 a3 3f 12 04 90 3f cb 4d a0 3f
       1.254572 1.2803148 1.1251242 1.252374
0000b0 78 5a 8f 3f d8 60 97 3f c2 f8 af 3f 2f 6a a5 3f
       1.1199484 1.1826429 1.374779 1.292303
0000c0 75 46 ae 3f 28 6b a1 3f 53 10 a0 3f 9e 3d a1 3f
       1.3615252 1.2610826 1.2504982 1.2596929
0000d0 f0 72 95 3f 2d b6 a8 3f 5e ca 97 3f d3 c7 a7 3f
       1.1675701 1.3180596 1.1858633 1.3107857
0000e0 b0 22 ad 3f e9 0e 93 3f 10 3c 97 3f bd 96 a3 3f
       1.3526211 1.1488925 1.1815205 1.2780377
0000f0 40 95 a5 3f 1f 80 9d 3f de 10 a3 3f 3d 90 9b 3f
       1.2936172 1.2304724 1.2739522 1.2153393

conv4.1.bias f4 [64]
000000 e2 70 4e 3e 4e 2c 53 3d d9 e1 5f bc cb f6 b3 bd
       0.20160249 0.051555924 -0.013664686 -0.087873064
000010 a2 c2 bd bd bc e8 72 3d b3 6b 84 bc 78 fd ec bd
       -0.09265639 0.059303984 -0.016164636 -0.11571783
000020 ce 10 c9 bc f1 6e 57 3d d0 d2 07 3d 7b d5 6b 3d
       -0.024544146 0.052596036 0.03316003 0.057576638
000030 2b ec b8 3d 09 2c c4 3c cd b7 bd bb ee e1 71 3b
       0.090294205 0.023946779 -0.005789733 0.0036908346
000040 17 29 6b 3d cc d9 db bc a1 f2 71 3d fc 18 af bc
       0.057412233 -0.026837252 0.05906928 -0.021374218
000050 5f 45 88 3b fe 2b 95 3d 3b 2b 48 bd 47 15 c5 bc
       0.0041586603 0.072837815 -0.048869353 -0.024057997
000060 cf 25 15 3d 99 c4 d4 3c e7 2b 87 3c 03 f9 8c 3d
       0.03641301 0.025972651 0.016500426 0.06883433
000070 85 31 01 3c de b0 9c 3c b7 a5 07 bc 12 1e b3 3d
       0.0078853415 0.019127306 -0.008279256 0.0874597
000080 cb 80 10 3c 28 d1 70 bc 42 00 3a be 47 f7 e0 bb
       0.008819769 -0.014698304 -0.18164161 -0.0068654153
000090 13 91 10 3d ba 6b 10 3d c9 7c 89 3d e4 46 3d be
       0.035294604 0.035258986 0.06713254 -0.18484074
0000a0 7c 72 ca 3c 66 c3 2c 3d a4 95 10 be 12 3b 59 3d
       0.024712794 0.042178534 -0.14119583 0.05303485
0000b0 7b 67 48 3d 55 a8 47 bd 6c 38 24 3c de 14 b9 3d
       0.04892681 -0.04874452 0.010023218 0.09037183
0000c0 1a 74 3e 3d 9b 6b 5e 3d 0a ce c0 3d 43 ad 4d 3d
       0.04649744 0.05430184 0.09414299 0.050214063
0000d0 39 15 7e bc b1 43 f4 bd 73 0a af 3b 66 c9 d3 bc
       -0.01550799 -0.119269736 0.005341822 -0.02585287
0000e0 d7 61 a8 3d fa 10 c0 bd 88 d7 4e 3d f3 98 c9 3c
       0.082217865 -0.09378238 0.050498515 0.024609065
0000f0 a3 43 fc ba eb 8e aa 3d 9e 6e 36 be 5e 08 26 3d
       -0.0019246232 0.08328041 -0.17815635 0.040535323

conv4.1.running_mean f4 [64]
000000 b8 3c 55 bc f0 f7 04 3e c9 84 19 3e 64 a3 05 be
       -0.013014965 0.12985206 0.1499206 -0.1305061
000010 cf 42 6a be 5c 3d 19 be ff 17 8c bd 3f 0b cb bd
       -0.22877048 -0.14964813 -0.068405144 -0.099142544
000020 68 e4 1f be da b9 4e be 4b 4c c9 bd 08 34 9c 3d
       -0.15614474 -0.20188084 -0.09829005 0.07627112
000030 c7 19 5b 3d 70 44 8f 3d 85 cf 01 bc a2 97 48 3e
       0.05349138 0.06995475 -0.007923012 0.19589093
000040 6a 55 62 3d f6 1b 82 bd 7d 43 46 bd 80 38 56 3e
       0.05525724 -0.063529894 -0.048404206 0.2091999
000050 e9 80 20 be 36 e1 a1 bd 48 3c 88 be 43 63 36 3e
       -0.15674175 -0.07904284 -0.2660849 0.17811303
000060 65 f6 9c 3c 45 03 9b be c5 f9 26 3d 22 a2 25 3e
       0.019160459 -0.30275932 0.040765543 0.1617513
000070 50 b5 7f bc 49 0d f1 bb 70 0a 3e bc ce eb 29 3e
       -0.015607193 -0.00735632 -0.011599168 0.16593859
000080 d6 1e 5e 3d 86 68 08 3e 4d e3 94 be e3 44 92 3e
       0.054228626 0.13321123 -0.29079667 0.2856818
000090 98 cf 03 3e 38 2d 98 bd ec cc 92 3d 56 d8 8c be
       0.1287216 -0.074305 0.07167992 -0.275088
0000a0 39 3f f4 3d e0 55 a2 3d 1e e4 a0 bd 3e 88 4a be
       0.11926121 0.079265356 -0.0785601 -0.19778535
0000b0 c7 0d 2f be c6 2f 87 be ee fb 29 be 15 d7 2e 3d
       -0.170951 -0.26403636 -0.1660001 0.042685587
0000c0 50 5e c5 3d d2 86 d8 3d 2e ee 83 be 9f 6e 7b 3d
       0.09637129 0.1057259 -0.25767654 0.061384793
0000d0 ab e8 d4 bd e2 28 37 be 35 c5 3e 3e e1 86 80 bb
       -0.103959404 -0.1788669 0.18629916 -0.003922329
0000e0 c7 6e aa 3d a0 aa 95 bd f2 f9 4f bc d1 06 d7 3d
       0.0832191 -0.07307935 -0.012693869 0.10499347
0000f0 84 57 29 be 78 a7 cc bc 61 8d 41 be 12 67 b0 3d
       -0.16537291 -0.0249822 -0.18901588 0.08613409

conv4.1.running_var f4 [64]
000000 b0 7c b7 3d c8 9a f7 3d 80 f4 06 3e b3 8b cc 3d
       0.08959329 0.12090069 0.13179207 0.09987583
000010 35 10 8f 3d 33 9d ba 3d d4 3d 92 3d 87 23 9b 3d
       0.06985513 0.091120146 0.07140699 0.07575136
000020 05 7a ac 3d 8c b2 fe 3d 86 24 87 3d d4 ef e7 3d
       0.08421711 0.12436399 0.06598763 0.113250405
000030 97 29 ed 3d da e8 00 3e 87 fd 08 3e bb 7c 17 3e
       0.11580198 0.12588826 0.13377963 0.14793675
000040 d9 47 ea 3d 23 a3 d9 3d fc 45 8b 3d 32 28 e1 3d
       0.11439485 0.10626819 0.06800458 0.10993995
000050 97 b6 f2 3d 53 b7 e1 3d a3 a8 d8 3d 07 11 f2 3d
       0.118512325 0.110212944 0.1057904 0.11819654
000060 80 51 0a 3e b2 be a6 3d b2 4a b9 3d c5 23 cc 3d
       0.13507652 0.08141841 0.0904745 0.0996776
000070 b1 71 86 3d e2 66 a5 3d 99 e6 c4 3d d4 49 20 3e
       0.06564654 0.08076264 0.096142955 0.15653163
000080 40 01 97 3d 8d 15 bd 3d a4 15 f0 3d f7 01 4d 3e
       0.07373285 0.09232626 0.117228776 0.20020281
000090 bd c3 a2 3d 9a 0b ca 3d 55 b4 e5 3d e7 c0 20 3e
       0.0794749 0.09865494 0.11216036 0.15698586
0000a0 12 62 2a 3e 1f e7 0a 3e b5 ba 2d 3e a5 04 cb 3d
       0.16638973 0.13564728 0.16965754 0.09912995
0000b0 c7 1c dc 3d a5 dd a5 3d 9f 76 f5 3d 98 a2 ec 3d
       0.10747676 0.08098916 0.11985516 0.1155445
0000c0 11 5a b7 3d 7e e9 eb 3d d6 23 cd 3d 47 71 6d 3d
       0.08952726 0.115191445 0.10016601 0.057969358
0000d0 86 e7 e6 3d bf 8e c1 3d de 5e d6 3d ea 66 cf 3d
       0.11274628 0.09451055 0.10467313 0.10127051
0000e0 4f 39 09 3e 60 50 aa 3d 2c 42 dc 3d 13 e5 10 3e
       0.13400768 0.083161116 0.10754809 0.14149885
0000f0 79 af e4 3d 90 84 c8 3d 2b 73 b9 3d 1f 92 b1 3d
       0.11166281 0.09790909 0.0905517 0.086704485

linear.weight f4 [10, 64]
000000 c6 6e 2f be 90 8c 9d bd 7c b3 58 be cd b9 21 3e
       -0.171321 -0.07692826 -0.21162218 0.15793534
000010 fe 4c c7 3c 20 a6 8e be 6d f0 8a 3c d0 81 97 3d
       0.024328705 -0.27861118 0.016960347 0.07397807
000020 fb 4a e7 3d 1d 6c b0 bd 5c 26 60 be ae 3c 18 3e
       0.11293598 -0.08614371 -0.21889633 0.14866897
000030 10 94 ac bd 63 62 72 bd 1a c9 d9 3d 79 27 6c be
       -0.08426678 -0.05917586 0.1063406 -0.23061933
000040 d3 ed 4a bd 8c 92 00 bd 62 bf e2 3d 27 4e 2d 3e
       -0.049543213 -0.031389758 0.110716596 0.16924344
000050 bf 9b da 3d 1d ce ed bb cd 75 2d 3e a1 98 49 3e
       0.106742375 -0.0072572366 0.16939469 0.1968713
000060 f3 41 4f be 1b d6 4d be 42 59 1b 3e 30 ed 87 be
       -0.20240001 -0.20101206 0.15170768 -0.26548147
000070 49 1a a3 be b4 bb 01 3e dc 6e 39 bd 94 00 d7 3d
       -0.3185599 0.1266926 -0.04527174 0.10498157
000080 9f bb d1 bd 9c 17 4e be 73 25 4c 3e a6 8b 80 3e
       -0.10240864 -0.20126194 0.1993616 0.25106543
000090 34 a1 a6 bc a1 24 38 be df 74 d6 3d 56 4f 6d 3e
       -0.02034054 -0.17982723 0.1047151 0.23174796
0000a0 96 e0 1f 3e dc 78 2a 3e af 19 44 3e 87 e2 0d be
       0.15613016 0.16647667 0.19150423 -0.13855945
0000b0 0d fc 10 be 56 bf e2 bd fc fe 91 bc 7e 5c 9d bd
       -0.1415865 -0.11071651 -0.017821781 -0.07683657
0000c0 98 7a b7 bc a1 43 91 be 9d 72 f0 bd 4c 84 8f 3d
       -0.022397324 -0.2837191 -0.11740611 0.070076555
0000d0 b2 48 cb 3d d6 a8 06 3e 74 85 12 bd 16 a9 32 3e
       0.09925975 0.13150343 -0.035771802 0.17447314
0000e0 46 b7 0d be 50 c3 89 bd 4a a1 cd bd 3e 41 03 3e
       -0.13839445 -0.06726706 -0.10040529 0.12817857
0000f0 18 f6 1f 3d 99 78 08 3c d4 a1 0e 3e 72 84 0d be
       0.039053053 0.008329534 0.1392892 -0.13820055
000100 f6 19 80 be 5a 5d 80 be 42 fa 38 3d ad 2d 00 be
       -0.25019807 -0.25071222 0.04516054 -0.12517424
000110 8b 36 6a be 2c ae 2e be 2c 1d f6 bd 13 23 1f be
       -0.22872369 -0.17058629 -0.12017283 -0.15540724
000120 b5 54 84 be e8 be 55 be 30 36 31 be 8c 87 23 be
       -0.25845876 -0.20873606 -0.17305827 -0.15969676
000130 41 4f 16 be a4 2e 6f be 0d e0 fd bd 6e 97 46 3c
       -0.1467867 -0.23357636 -0.1239625 0.012121065
000140 fb 5f 2b be 4a 75 31 3c 84 58 69 be 0f f3 f5 ba
       -0.16735832 0.010831187 -0.22787672 -0.0018764454
000150 bc 48 6f be bd 33 44 be 03 05 66 be 79 af 56 bc
       -0.2336759 -0.19160362 -0.2246285 -0.013103359
000160 4c 61 05 be dc 05 43 be 7f 2c 73 be 1b cb 6b be
       -0.13025397 -0.19045204 -0.23747443 -0.23026697
000170 da 87 bf bc 8f 3e 8d be ed 1f 3e bd ea a6 a1 bd
       -0.023380209 -0.2758679 -0.046417166 -0.078931645
000180 1b 4e 64 be 8f f7 25 3d 27 16 dc bd 17 1e 28 be
       -0.2229542 0.040519293 -0.10746413 -0.16417728
000190 98 5f 05 bd fb 35 2a be 2b ed d7 bd cd 86 fd bd
       -0.03256187 -0.16622154 -0.10543283 -0.12379227
0001a0 d2 6c b4 bc 6e c5 18 be 5a b7 4a be 68 d1 44 be
       -0.022024546 -0.14919063 -0.19796506 -0.19220507
0001b0 e6 64 64 be 4b 53 46 be f3 74 89 be 05 15 52 be
       -0.22304115 -0.19367711 -0.26847038 -0.20515831
0001c0 7a 98 c6 bd a8 d9 1d be be 7e bf bd f5 19 a7 bd
       -0.09697051 -0.1541506 -0.09350346 -0.08159248
0001d0 85 9e b2 bd ca 7a 4d be ac 3b 4f be 4d a8 09 bc
       -0.087216415 -0.20066372 -0.20237607 -0.008401942
0001e0 14 04 21 bd 9d 47 fc bd 6a 0f 0d be 41 1d 78 bd
       -0.03931053 -0.12318347 -0.13775411 -0.060574774
0001f0 4f c7 c9 bd d0 a0 32 be 37 8e d7 bc 39 23 b5 bb
       -0.09852468 -0.17444158 -0.02631293 -0.0055278805
000200 b3 d6 30 3e 77 f6 31 3e 08 9f a1 be e0 0c 56 3b
       0.17269401 0.17379175 -0.31566644 0.0032661483
000210 cb 4b 82 bd 6c da cc 3d 75 b6 0f 3a db e5 f9 bd
       -0.063621126 0.10002598 0.00054822053 -0.122020446
000220 28 4e 58 bd 0d ad 59 3e e8 54 df be 46 f1 1f 3e
       -0.05280891 0.2125742 -0.43619466 0.15619382
000230 78 e6 2a 3c be bc 0a bf 42 e6 a5 3e eb 6a 70 be
       0.010430925 -0.5419425 0.32402235 -0.23478286
000240 dc 12 b4 3e 9c e5 55 3d d1 1c ae 3d 1a 4f 9a be
       0.3517064 0.052220926 0.0850159 -0.30138475
000250 f5 c1 6f be 9a 81 48 3e 70 e3 15 3e ac e2 9c 3b
       -0.23413832 0.19580689 0.14637542 0.0047877636
000260 be e6 f7 bc 7f 1f 37 bc 3c dd a7 be 85 2f 0c bc
       -0.030261394 -0.011176943 -0.32785976 -0.008556251
000270 0a a3 91 be 46 ca b9 bd 81 f4 27 3d 41 ac 71 3e
       -0.284447 -0.09071784 0.04100466 0.23600866
000280 0b 20 59 bb 5a ef bb be d8 96 fb bd 1b f5 ab be
       -0.0033130671 -0.36706048 -0.122846305 -0.33585438
000290 81 48 6f be b9 27 57 3e a3 1d 7f be f6 c6 c2 3c
       -0.23367502 0.21011247 -0.2491365 0.023776513
0002a0 9c 97 1a be 7a 07 d9 bd 71 07 98 bd 6c 68 be 3d
       -0.15096897 -0.10597129 -0.07423294 0.09297261
0002b0 65 e3 81 3e d4 0f 05 3e 11 12 8c bd b7 fb 8b bd
       0.253688 0.12994319 -0.068393834 -0.0683512
0002c0 3d 3a e8 bd fa c4 54 be 54 6c ff 3d 35 1f 9d be
       -0.11339233 -0.20778266 0.12471834 -0.30687872
0002d0 8d 90 c8 3d 83 af f7 bd f2 6f c7 be 38 a8 f8 bd
       0.09793196 -0.12094023 -0.38952595 -0.1214146
0002e0 3f 89 25 3e cc 05 b0 be 4b 43 26 be 63 9e a2 3e
       0.16165636 -0.34379423 -0.16236608 0.31761464
0002f0 ff 72 48 3e 1e 15 59 3e 93 75 4e be 04 c5 b2 be
       0.19575118 0.21199462 -0.20162039 -0.34915936
000300 99 d3 b0 3d 6c 82 a4 3e e7 23 90 3d 04 a1 33 be
       0.08634109 0.32130754 0.07038098 -0.17541891
000310 26 2c cc be d2 6c 4d be 0f 65 7a be 07 88 51 be
       -0.39877433 -0.20061043 -0.24452613 -0.20462047
000320 42 96 b9 be 5b cb 58 be 69 e7 cb 3d f8 4e 4c 3e
       -0.3624745 -0.21171324 0.09956247 0.19951999
000330 27 7e 84 3e 41 66 1a bd ef e4 60 3c 27 28 a7 3e
       0.25877497 -0.037695173 0.013726457 0.3264782
000340 ec a9 37 3e 5b f3 87 3d 42 62 6c be 0a 88 19 3e
       0.17935914 0.06638213 -0.23084357 0.14993301
000350 1c 27 a4 be 5d 10 0b be 35 de 8c be 72 a8 ff 3d
       -0.32061088 -0.13580461 -0.2751328 0.124833
000360 84 2a 85 3e 49 98 ae be 0e ef 00 be 66 95 34 bc
       0.26009 -0.3410056 -0.12591192 -0.0110219475
000370 01 79 f3 bd 12 f5 32 bc 4e 4d c9 3d 95 bb 83 3e
       -0.11888314 -0.010922687 0.09829198 0.2572905
000380 e2 e3 e8 bd 63 82 0e 3e f0 4b 78 be 8f 0a b5 bb
       -0.1137159 0.13916926 -0.24247718 -0.0055249403
000390 c7 79 3e 3e ce 1e 0c be 1f 41 80 3d 19 fd a1 be
       0.18601142 -0.13683626 0.06262421 -0.3163841
0003a0 ca 87 15 3e da c9 27 3e 5c d9 29 be d9 bd d0 be
       0.1460258 0.16385594 -0.16586822 -0.40769842
0003b0 e1 5a e9 bd 38 74 ad be 79 7d bd be 99 e4 26 3e
       -0.11394287 -0.3387773 -0.3700979 0.1629814
0003c0 1b 16 af 3e 30 62 08 3e 02 50 c2 be 84 15 37 3e
       0.34196553 0.13318706 -0.37951666 0.17879301
0003d0 d9 4e 58 be 92 c7 dd be 98 95 20 3e 0f a0 c7 3d
       -0.21123828 -0.43316323 0.15682065 0.09747326
0003e0 43 9d 91 3e 02 fd c0 bd b7 68 60 bd d5 40 64 3e
       0.28440294 -0.094232574 -0.054787364 0.22290356
0003f0 cf 3f 0d be 85 2c 69 bd 4c ee 4a be 38 d0 98 bd
       -0.13793872 -0.056927223 -0.19817466 -0.074615896

linear.bias f4 [10]
000000 84 4a 7b bd 4f 43 7e be 55 40 53 3d a4 5a 3d 3d
       -0.06135036 -0.24830364 0.051575024 0.04622902
000010 31 88 66 3c c7 f0 09 3e 28 d7 92 bd 15 25 fb bd
       0.0140705565 0.13470756 -0.07169944 -0.12262932
000020 32 b5 9d bc 3c e6 56 b9
       -0.01925144 -0.000204944
